lstm_v1.pth (torch, 46229 bytes, 5 tensors)

lstm.weight_ih_l0 f4 [200, 2]
0.27974337 -0.09340548 -0.110131525 -0.0044875043 0.17027862 0.06536636 -0.18417689 -0.026407808
0.05391646 0.0418565 -0.08269243 -0.014569281 0.31782135 -0.15739016 0.11533606 -0.15738165
-0.10285213 -0.051599506 -0.042648204 -0.19035892 -0.10963495 -0.22739854 0.12108149 -0.039260134
0.29258278 0.06904357 0.28274322 -0.07861047 0.16880426 -0.067466594 0.15591806 0.043862935
0.22135563 -0.10451762 0.1848093 -0.09778617 0.11943709 -0.029608823 -0.14596875 -0.05007101
-0.15337963 -0.07015583 -0.12339556 -0.14594105 -0.13264064 -0.15074256 0.21922657 -0.19161008
-0.11554801 -0.014562364 0.1121804 -0.0910837 0.07029381 -0.1740339 0.2855799 0.15143405
0.18483007 -0.29679024 0.06719275 -0.007110211 -0.31976643 -0.29398435 -0.029204294 -0.12804855
0.1897118 0.06786 0.1808032 0.16729553 0.05585054 -0.15806924 0.15095435 0.14952382
0.14103262 0.050982174 0.2657807 -0.19462842 0.13244042 -0.04581895 0.14916936 -0.31927288
0.11306136 -0.06572508 -0.059404112 -0.051037826 -0.012113394 -0.06602307 0.19252749 0.021342572
0.15570301 -0.12381503 0.20020676 -0.06584525 0.19279236 0.0024427613 0.18043974 0.0024515772
0.11667276 -0.11970905 0.21582279 -0.035040554 0.26579493 -0.07554141 -0.14769138 -0.12016394
0.19620775 0.12324373 0.066579655 -0.21805036 -0.041946683 -0.044011746 -0.020836907 -0.2007364
0.35372147 -0.027662653 0.036230337 -0.10532084 -0.06963371 0.14769812 0.12147373 -0.06493386
-0.018694114 -0.016806183 0.02041008 -0.048711926 0.15423529 -0.07329688 0.3189165 0.13210006
0.36087918 -0.12723693 0.2665951 0.15536486 0.12869401 -0.031321067 0.24608973 -0.11122807
0.32648438 -0.09387701 -0.050682135 -0.026710525 -0.1506578 -0.1302459 -0.19715063 -0.06986293
-0.05956833 -0.085632004 0.27777526 -0.017302526 -0.21696979 0.04083399 0.10572021 0.041112427
0.10993338 -0.21033102 0.22266896 -0.015106167 0.21303244 -0.019675408 0.25233617 0.100730635
-0.23738901 -0.06780486 0.040423702 0.1213255 0.17943826 -0.015946854 0.2830585 -0.00393504
0.3609728 -0.07523071 0.26917037 0.12386367 0.10574778 -0.098697945 0.18032195 -0.09786067
0.15463245 -0.08338759 0.18980491 -0.25839302 0.1915059 -0.03666495 -0.024474243 -0.0022139146
0.029833408 -0.06765107 0.2442468 -0.039291725 0.2757177 -0.071796834 0.20541525 -0.014311421
0.04941307 0.112178914 0.1007169 0.0038388697 0.29060975 0.15670927 0.03661633 0.16282141
-0.2754614 -0.00047536544 -0.14835113 0.16963774 -0.119786374 -0.09796351 0.13382047 0.04511395
-0.09007187 -0.058020074 -0.066783704 0.0039308537 -0.29906863 -0.05353827 -0.0436334 0.028680615
0.11480111 0.10679452 -0.100010715 0.052281052 0.07964008 -0.018690424 -0.073989175 -0.0064042555
-0.32227698 -0.057390187 0.3087745 0.0796287 0.25966647 0.070900925 0.23107025 0.0316637
-0.25101012 -0.16171828 0.26923963 -0.084132396 0.21920998 -0.060282327 0.12963623 -0.15343833
0.12313336 -0.18051416 -0.07756704 0.07108925 0.01711687 -0.13971984 -0.18472566 -0.0327099
0.024049692 0.13322265 -0.0016108988 0.070236035 0.08805296 0.12068739 -0.24489462 -0.14436737
00000000: 863a 8f3e 5f4b bfbd a38c e1bd ea0b 93bb
00000010: 855d 2e3e ccde 853d de98 3cbe 3055 d8bc
00000020: 82d7 5c3d b971 2b3d a65a a9bd feb3 6ebc
00000030: 7bb9 a23e e32a 21be 5035 ec3d a828 21be
00000040: 23a4 d2bd 015a 53bd e2af 2ebd 73ed 42be
00000050: 4a88 e0bd 2adb 68be 92f9 f73d 3ccf 20bd
00000060: 69cd 953e b766 8d3d b8c3 903e 87fe a0bd
00000070: 06db 2c3e ed2b 8abd fca8 1f3e 9fa9 333d
00000080: 0dab 623e 550d d6bd a63e 3d3e 1e44 c8bd
00000090: 6f9b f43d 348e f2bc d578 15be 4217 4dbd
000000a0: 8d0f 1dbe dcad 8fbd d0b6 fcbd 9271 15be
000000b0: f3d2 07be 425c 1abe ee7c 603e 6f35 44be
000000c0: 6fa4 ecbd fb96 6ebc d6be e53d 178a babd
000000d0: 33f6 8f3d f135 32be 8737 923e 8711 1b3e
000000e0: 1844 3d3e e4f4 97be 5a9c 893d c6fc e8bb
000000f0: 6db8 a3be 1e85 96be d83d efbc 291f 03be
00000100: cf43 423e 2ffa 8a3d 7924 393e 854f 2b3e
00000110: 89c3 643d e7dc 21be c793 1a3e c61c 193e
00000120: db6a 103e afd2 503d 6814 883e ac4c 47be
00000130: 769e 073e a7ac 3bbd dabf 183e bc77 a3be
00000140: b78c e73d df9a 86bd ba51 73bd 0a0d 51bd
00000150: 4277 46bc 1a37 87bd ed25 453e 9ed6 ae3c
00000160: 9c70 1f3e bc92 fdbd 0003 4d3e e0d9 86bd
00000170: 5c6b 453e bc16 203b 32c5 383e a4aa 203b
00000180: 21f2 ee3d 052a f5bd a600 5d3e af86 0fbd
00000190: 4616 883e 74b5 9abd 693c 17be 8318 f6bd
000001a0: afea 483e 3567 fc3d ea5a 883d 9848 5fbe
000001b0: 49d0 2bbd a945 34bd 29b2 aabc d88d 4dbe
000001c0: fb1a b53e ca9c e2bc 4366 143d 74b2 d7bd
000001d0: 1e9c 8ebd 2d3e 173e 38c7 f83d 0bfc 84bd
000001e0: 6624 99bc 1fad 89bc 0a33 a73c 2886 47bd
000001f0: dbef 1d3e ad1c 96bd 0649 a33e 3d45 073e
00000200: 28c5 b83e 664a 02be 277f 883e f717 1f3e
00000210: 5dc8 033e 854a 00bd f2fe 7b3e 8bcb e3bd
00000220: f628 a73e 9742 c0bd 1298 4fbd 08d0 dabc
00000230: 0a46 1abe 2e5f 05be dbe1 49be 4c14 8fbd
00000240: ecfd 73bd d55f afbd 8f38 8e3e 07be 8dbc
00000250: 542d 5ebe 8b41 273d d683 d83d 8165 283d
00000260: c024 e13d 0461 57be 5503 643e db7f 77bc
00000270: 2d25 5a3e 522e a1bc 3532 813e dd4b ce3d
00000280: 1b16 73be 46dd 8abd 5393 253d 8179 f83d
00000290: aabe 373e faa2 82bc 0bed 903e 82f1 80bb
000002a0: 6dd1 b83e 8f12 9abd b3d0 893e 3cac fd3d
000002b0: 4b92 d83d 2622 cabd 51a6 383e 2d6b c8bd
000002c0: f857 1e3e 1dc7 aabd 385c 423e 174c 84be
000002d0: 1f1a 443e fd2d 16bd 357e c8bc 5317 11bb
000002e0: 3165 f43c a58c 8abd d51b 7a3e 5cf0 20bd
000002f0: df2a 8d3e 380a 93bd 6058 523e 737a 6abc
00000300: 5c65 4a3d 0fbe e53d a944 ce3d 8c95 7b3b
00000310: cdca 943e 6578 203e 01fb 153d a8ba 263e
00000320: 4709 8dbe 783a f9b9 5ce9 17be 84b5 2d3e
00000330: 8f52 f5bd 18a1 c8bd 3c08 093e 68c9 383d
00000340: 9a77 b8bd 75a6 6dbd e5c5 88bd 64ce 803b
00000350: 861f 99be f24a 5bbd f0b8 32bd 9cf3 ea3c
00000360: d81c eb3d 16b7 da3d 6bd2 ccbd a824 563d
00000370: 571a a33d a91c 99bc a387 97bd cada d1bb
00000380: 7d01 a5be f911 6bbd b117 9e3e 5f14 a33d
00000390: 01f3 843e 8134 913d ae9d 6c3e ccb1 013d
000003a0: 6684 80be 7a99 25be c7d9 893e 9b4d acbd
000003b0: 9578 603e 9aea 76bd 5cbf 043e f01e 1dbe
000003c0: 582d fc3d b4d8 38be 78db 9ebd 3e97 913d
000003d0: ae38 8c3c b812 0fbe b928 3dbe d1fa 05bd
000003e0: dc03 c53c 856b 083e cb24 d3ba e9d7 8f3d
000003f0: 1c55 b43d f32a f73d a8c5 7abe 0ad5 13be

lstm.weight_hh_l0 f4 [200, 50]
-0.007662003 0.024205655 -0.14966184 0.048403434 -0.0016090487 -0.07204887 0.017978806 -0.023466451
0.09098879 -0.11975032 -0.03855908 -0.13238892 -0.2441248 0.1720344 0.138343 0.10388602
-0.055696435 0.03955608 0.10342132 0.16754355 0.17185651 0.070193715 -0.061229955 0.08788626
0.13064428 0.09816743 0.0646373 -0.19936872 -0.0038065938 -0.010296945 0.0639621 0.039423846
-0.015561062 0.15092665 0.03338402 0.021562532 0.04599503 -0.1155521 0.043983243 0.1516107
-0.17801978 -0.07117825 0.17213356 0.10737331 0.023581814 0.16335075 0.07495462 -0.16378815
-0.09696473 -0.059924122 0.097295545 -0.10328596 0.093605846 -0.21268462 0.06436045 0.12832804
0.15796109 0.053871136 -0.23969054 0.10006331 0.04840179 -0.0034982658 0.07327662 -0.067843
-0.27869007 -0.27537847 0.101720504 -0.08594939 -0.10089152 0.060491454 -0.16425793 -0.19508517
-0.08343569 0.079874374 0.08432632 -0.036610775 -0.031533305 0.055776495 -0.10033424 0.11050837
0.014290902 0.024072781 -0.19189687 -0.16783932 -0.25330347 -0.0031156987 -0.06079847 0.3086547
0.061149128 -0.1399355 0.077591695 -0.054183856 0.14107132 -0.16875304 -0.16904046 -0.19985543
0.16080801 0.13058501 -0.1652677 -0.107098036 0.032786302 -0.2068307 0.098761 -0.106414706
0.08103454 -0.04978937 0.11039495 -0.09946346 0.0043187393 -0.12356118 -0.07089254 0.04865031
-0.044311877 0.15649886 0.08013197 0.10368035 -0.060576446 -0.054650966 0.107681595 0.09316003
0.19501388 -0.040728964 0.020952472 0.12713738 0.03656753 -0.076718055 -0.05621468 -0.07844135
0.08864598 0.00039227444 0.11689768 -0.0020393769 0.111406855 -0.0036103388 0.13620597 0.16090329
-0.039533462 -0.056105826 0.10515135 -0.047584824 0.031188387 -0.024045885 0.18302143 -0.07918971
0.04463048 -0.0865585 -0.049725343 0.11603456 0.039286714 -0.09101195 0.15476073 0.116812214
0.029396396 0.03527213 -0.08857726 -0.011535964 -0.004506625 0.1807605 0.11964604 -0.02090589
-0.08805545 0.06440003 -0.20804156 -0.10445923 -0.04902193 -0.14180842 0.054732442 -0.1063256
-0.07175904 0.10650279 0.04942188 0.08820137 -0.09981166 -0.032422878 0.05470733 -0.030597154
0.084443435 0.1602599 -0.059507597 -0.0015454715 0.03992953 0.22321366 0.09676768 -0.14994006
-0.015877618 0.0012700123 -0.083220616 -0.11502687 0.035748187 0.009806876 0.08012678 0.035328753
0.010594352 -0.07228203 -0.069926575 0.11148418 0.12998003 0.17554832 -0.15599626 -0.21181077
0.03341556 -0.13174528 0.06339141 -0.010102167 -0.16151425 0.08700378 0.12287177 0.1688825
-0.074927315 0.028866023 0.072522834 0.070653155 0.06789713 0.0014124623 -0.1594133 0.06440459
0.10598402 0.02110574 -0.039529692 0.096759506 -0.13863266 -0.05540721 -0.039795365 -0.060080692
-0.008824394 -0.09084643 0.0559197 0.022089891 0.0023172137 0.0268501 -0.00891015 0.0294694
0.0482052 0.04792755 0.09245897 0.07013727 -0.0010499643 -0.0919776 -0.008081668 0.14392313
-0.035857227 0.03993514 -0.07402895 0.028103832 -0.15083158 0.113266535 0.11924773 0.07707744
-0.052243702 -0.100510016 0.13631812 0.09028615 0.26757196 0.03801784 -0.008754894 0.027048947
00000000: 8a11 fbbb f04a c63c f440 19be ae42 463d
00000010: b7e6 d2ba 5c8e 93bd 4a48 933c b73c c0bc
00000020: 5558 ba3d a83f f5bd 20f0 1dbd f690 07be
00000030: dafb 79be c929 303e caa9 0d3e 32c2 d43d
00000040: f221 64bd 8e05 223d 8fce d33d 8990 2b3e
00000050: 27fb 2f3e b9c1 8f3d 43cc 7abd b6fd b33d
00000060: 9dc7 053e 010c c93d 9060 843d 5027 4cbe
00000070: 0c78 79bb 85b4 28bc 90fe 823d e67a 213d
00000080: d3f3 7ebc 848c 1a3e afbd 083d e8a3 b03c
00000090: 4965 3c3d 94a6 ecbd c627 343d d63f 1b3e
000000a0: d14a 36be e7c5 91bd c843 303e 8ae6 db3d
000000b0: a62e c13c 6b45 273e cf81 993d 15b8 27be
000000c0: 7295 c6bd ff72 75bd e342 c73d 9787 d3bd
000000d0: 6cb4 bf3d ffc9 59be 69cf 833d 6d68 033e
000000e0: 8dc0 213e fba7 5c3d 7071 75be feed cc3d
000000f0: f540 463d 2943 65bb 0d12 963d 45f1 8abd
00000100: 77b0 8ebe 68fe 8cbe d752 d03d 3c06 b0bd
00000110: 37a0 cebd e3c5 773d 3b33 28be 68c4 47be
00000120: 55e0 aabd 2d95 a33d 47b3 ac3d 2ef5 15bd
00000130: 1129 01bd e575 643d 0a7c cdbd 3652 e23d
00000140: 6324 6a3c 4834 c53c 9d80 44be 12de 2bbe
00000150: feb0 81be c030 4cbb d107 79bd fd07 9e3e
00000160: 8277 7a3d 404b 0fbe 65e8 9e3d e4ef 5dbd
00000170: 0075 103e 99cd 2cbe f118 2dbe e7a6 4cbe
00000180: dbaa 243e 14b8 053e f03b 29be 3756 dbbd
00000190: ee4a 063d 6dcb 53be 3543 ca3d f4ef d9bd
000001a0: 70f5 a53d f0ef 4bbd bf16 e23d 80b3 cbbd
000001b0: 3684 8d3b a50d fdbd 1c30 91bd 8c45 473d
000001c0: 5f80 35bd 3d41 203e 3b1c a43d 5d56 d43d
000001d0: 021f 78bd b1d9 5fbd 2b88 dc3d b0ca be3d
000001e0: b8b1 473e 6ad3 26bd 85a4 ab3c 4d30 023e
000001f0: d6c7 153d 5b1e 9dbd 5d41 66bd dca5 a0bd
00000200: 068c b53d 2faa cd39 0d68 ef3d 11a7 05bb
00000210: 4729 e43d 6f9b 6cbb 9479 0b3e d5c3 243e
00000220: d7ed 21bd 39cf 65bd 9759 d73d 4ee8 42bd
00000230: ca7e ff3c e0fb c4bc f869 3b3e 372e a2bd
00000240: 73ce 363d 9545 b1bd cdac 4bbd 87a3 ed3d
00000250: 1beb 203d 7964 babd 9979 1e3e 3e3b ef3d
00000260: b6d0 f03c 8279 103d ff67 b5bd 5701 3dbc
00000270: 4fac 93bb 4819 393e fc08 f53d d442 abbc
00000280: 6a56 b4bd 2ae4 833d d908 55be b9ee d5bd
00000290: 38cb 48bd 3a36 11be 202f 603d 3cc1 d9bd
000002a0: 67f6 92bd 221e da3d 996e 4a3d eba2 b43d
000002b0: 0e6a ccbd dacd 04bd cb14 603d e2a6 fabc
000002c0: aef0 ac3d 2c1b 243e 3dbe 73bd 6b91 caba
000002d0: 268d 233d 1f92 643e 222e c63d e389 19be
000002e0: c711 82bc 8b76 a63a 926f aabd 3593 ebbd
000002f0: b16c 123d 05ad 203c 8219 a43d e2b4 103d
00000300: ef93 2d3c 9a08 94bd aa35 8fbd d151 e43d
00000310: 7c19 053e f0c2 333e 7cbd 1fbe ece4 58be
00000320: c1de 083d 3ce8 06be 5bd3 813d 8f83 25bc
00000330: fe63 25be 0a2f b23d 32a4 fb3d 89ef 2c3e
00000340: 7e73 99bd 7078 ec3c da86 943d 9ab2 903d
00000350: a70d 8b3d 5f22 b93a 3d3d 23be 8ee6 833d
00000360: 260e d93d f2e5 ac3c e3e9 21bd d929 c63d
00000370: b8f5 0dbe acf2 62bd 7700 23bd 2c17 76bd
00000380: 3194 10bc b10d babd 0e0c 653d dcf5 b43c
00000390: 65dc 173b bef4 db3c e1fb 11bc d069 f13c
000003a0: d172 453d ae4f 443d 215b bd3d 21a4 8f3d
000003b0: f59e 89ba c05e bcbd f968 04bc 9660 133e
000003c0: 07df 12bd 0893 233d 7d9c 97bd 023a e63c
000003d0: 9873 1abe 49f8 e73d 2738 f43d c7da 9d3d
000003e0: 7efd 55bd 32d8 cdbd fa96 0b3e f2e7 b83d
000003f0: 31ff 883e 98b8 1b3d b070 0fbc c195 dd3c

lstm.bias_ih_l0 f4 [200]
0.08943599 0.020666704 0.051111106 -0.0633779 -0.2568909 -0.034903117 0.10225387 0.10313067
-0.09799508 -0.16599816 -0.21849467 0.06750166 0.1505698 0.0025111763 -0.016492324 -0.0775643
-0.09934527 -0.023556214 0.10305092 -0.07623005 0.004614362 -0.010267444 -0.2003595 0.07011395
-0.074551955 -0.117935166 -0.07872551 -0.07475188 0.09075536 -0.0654954 -0.17975776 0.008596625
0.024008153 0.095358364 0.10679168 -0.003335838 -0.13102312 0.11543313 0.07278098 -0.17121126
0.03909757 -0.055290245 -0.18722682 -0.031036722 0.073058434 -0.09048716 -0.149719 -0.05711321
0.0776918 0.0652533 -0.025952728 -0.15572761 0.08250089 -0.03846162 -0.047541518 -0.17808264
-0.07026712 0.07601175 -0.15063898 -0.06600676 -0.1445047 0.035434768 0.14727612 0.2100921
0.16752192 0.005504581 0.0146021275 0.14336258 -0.00828339 -0.21445413 0.05482148 -0.1455485
-0.2481785 0.010058075 -0.18435593 -0.14599383 -0.06306643 0.14282449 -0.0057787816 0.15772279
-0.08001925 -0.20908016 0.114344455 -0.01336762 0.18258035 0.08058253 0.061986193 0.20613766
0.051165506 -0.035678353 0.13293357 -0.068212725 -0.054124057 0.067709744 0.14491667 -0.067532346
0.07653922 -0.008155953 0.04636447 -0.039224863 -0.026744893 0.08615093 -0.084631085 -0.029262608
-0.034416802 0.09099681 0.06805304 -0.15145496 0.019953804 -0.052111343 0.09938588 -0.07364299
0.11333464 -0.05952603 0.12708488 0.06649752 0.0754333 0.017598119 -0.009963494 -0.019137796
-0.03379611 0.033109102 -0.011137611 0.034865465 0.042141877 0.15102188 0.15175514 -0.06636311
0.040251646 -0.06355065 0.043219034 -0.047566637 -0.06710693 0.1608726 -0.15074964 -0.13588633
-0.010839262 -0.027986795 -0.09128489 0.034609076 -0.13488154 -0.005313031 -0.125 -0.01645867
0.1616557 0.05046986 -0.09008125 -0.10614841 -0.05491706 0.028241383 0.061494265 0.00039818702
0.068555966 -0.268392 -0.07394332 -0.115182504 0.06398955 0.05398574 -0.084057935 -0.09456009
-0.04805615 -0.028980872 -0.023124326 0.13719788 0.0528218 0.13117294 -0.08761123 0.18200678
0.12389188 -0.104645655 -0.21950766 -0.0034328285 0.016800601 -0.038263515 -0.016987834 0.075640835
0.018597396 0.09762597 -0.08967771 0.15015621 -0.049448982 -0.047151405 -0.024597522 0.0969939
-0.010563932 0.08949482 -0.018405963 0.122042686 0.04100983 -0.22425938 -0.07362548 -0.14143772
-0.1702132 -0.085245445 0.05052323 0.10774279 0.0050574876 0.10346915 -0.00957872 0.03948832
00000000: 372a b73d 384d a93c e159 513d 46cc 81bd
00000010: 3487 83be 92f6 0ebd 7a6a d13d 2c36 d33d
00000020: a5b1 c8bd 6cfb 29be 11bd 5fbe 4f3e 8a3d
00000030: f82e 1a3e 8c92 243b e91a 87bc 08da 9ebd
00000040: 8875 cbbd f6f8 c0bc 5c0c d33d 801e 9cbd
00000050: 1334 973b c838 28bc 0a2b 4dbe e797 8f3d
00000060: b2ae 98bd fe87 f1bd d73a a1bd 8317 99bd
00000070: f2dd b93d 7422 86bd 6b12 38be dcd8 0c3c
00000080: bfac c43c 3f4b c33d 99b5 da3d 139e 5abb
00000090: ed2a 06be 3468 ec3d 320e 953d 0152 2fbe
000000a0: c624 203d 0678 62bd 63b8 3fbe b940 febc
000000b0: a99f 953d 5551 b9bd f04f 19be 8bef 69bd
000000c0: e11c 9f3d 86a3 853d d19a d4bc 0f77 1fbe
000000d0: 3af6 a83d ef89 1dbd e5ba 42bd 4c5b 36be
000000e0: 35e8 8fbd 0cac 9b3d 1b41 1abe 8d2e 87bd
000000f0: 0af9 13be 0c24 113d 8dcf 163e 6222 573e
00000100: de8a 2b3e c65f b43b c33d 6f3c a4cd 123e
00000110: 0eb7 07bc dd99 5bbe 7d8c 603d aa0a 15be
00000120: 8122 7ebe a0ca 243c cdc7 3cbe 687f 15be
00000130: f928 81bd 9540 123e ef5b bdbb 1582 213e
00000140: 22e1 a3bd 1c19 56be 6d2d ea3d dd03 5bbc
00000150: 58f6 3a3e 7408 a53d 3ce5 7d3d c015 533e
00000160: ec92 513d 7723 12bd bd1f 083e 1db3 8bbd
00000170: 30b1 5dbd 68ab 8a3d 0965 143e 664e 8abd
00000180: 98c0 9c3d 8ca0 05bc ace8 3d3d 40aa 20bd
00000190: 1b18 dbbc e66f b03d 1053 adbd 23b8 efbc
000001a0: a2f8 0cbd 895c ba3d 645f 8b3d 0217 1bbe
000001b0: 2976 a33c b472 55bd d38a cb3d 23d2 96bd
000001c0: fe1b e83d 91d1 73bd 8a22 023e da2f 883d
000001d0: c67c 9a3d ee29 903c ec3d 23bc dec6 9cbc
000001e0: ca6d 0abd 699d 073d 877a 36bc 17cf 0e3d
000001f0: f69c 2c3d 7ba5 1a3e b365 1b3e 62e9 87bd
00000200: e9de 243d d826 82bd 7106 313d 3cd5 42bd
00000210: 5c6f 89bd c9bb 243e 1d5e 1abe c925 0bbe
00000220: 2997 31bc 9044 e5bc 93f3 babd 3fc2 0d3d
00000230: 631e 0abe ef18 aebb 0000 00be 55d4 86bc
00000240: 1289 253e 7cb9 4e3d 857c b8bd 5664 d9bd
00000250: b6f0 60bd 795a e73c 69e1 7b3d c2c3 d039
00000260: 1267 8c3d ad6a 89be 986f 97bd cee4 ebbd
00000270: f40c 833d 2720 5d3d 9126 acbd b8a8 c1bd
00000280: 87d6 44bd 4b69 edbc 3a6f bdbc 9a7d 0c3e
00000290: ac5b 583d 3352 063e 846d b3bd fc5f 3a3e
000002a0: 07bb fd3d 7650 d6bd 9ec6 60be 4ef9 60bb
000002b0: 6aa1 893c 34ba 1cbd 122a 8bbc 95e9 9a3d
000002c0: 9159 983c 20f0 c73d f2a8 b7bd 8dc2 193e
000002d0: 048b 4abd d521 41bd be80 c9bc bda4 c63d
000002e0: 5814 2dbc 0f49 b73d 1ac8 96bc 84f1 f93d
000002f0: ecf9 273d 40a4 65be f5c8 96bd 0dd5 10be
00000300: 5e4c 2ebe 2a95 aebd 72f1 4e3d 40a8 dc3d
00000310: 48b9 a53b a2e7 d33d 10f0 1cbc 81be 213d

lstm.bias_hh_l0 f4 [200]
0.040234312 -0.1724014 -0.12363013 -0.08034195 -0.2401042 -0.14257284 -0.047506053 0.11836662
-0.11607099 -0.15137017 -0.13912044 -0.011150158 0.055280633 0.071862616 -0.030694908 0.06986754
-0.08369289 0.1383357 0.016601365 -0.06302483 -0.12831649 -0.07233265 -0.08791904 -0.034224402
-0.1461753 -0.114530936 -0.052526355 0.12789804 -0.12304689 -0.05582937 -0.25407267 -0.010492135
0.048000768 0.1048902 0.11752398 -0.04056895 0.07189337 -0.06292005 0.15965676 -0.14473955
-0.09903786 -0.18607889 0.052485887 -0.10371126 0.0033391984 -0.009369428 -0.0979883 -0.06389081
-0.118835606 0.078114405 0.017664613 0.0020911593 0.0499865 -0.16207658 0.02506896 -0.100604095
0.032451734 0.105449766 -0.078551844 -0.20999445 -0.015931115 0.024486294 -0.026661567 0.17499894
0.05453466 0.07067614 -0.05077593 -0.0044422867 -0.010599548 -0.20448446 0.037859526 -0.08241854
0.00062623154 -0.024941903 0.015085026 0.008231962 -0.22026499 0.17763394 -0.10906461 0.13767979
-0.04555158 -0.0832429 0.09427655 0.026099417 0.23885731 0.065037385 -0.12737618 0.08255034
0.15029591 -0.057827245 0.0943093 -0.07357833 -0.09445258 0.08690406 0.097731836 0.124364875
-0.050063074 0.038405742 -0.029115062 -0.14518882 -0.15510483 0.12291727 0.027987929 0.045869146
-0.05822517 0.03265789 -0.10193713 -0.05397114 -0.09192232 -0.05970288 -0.022570962 -0.06416709
-0.014047436 0.041671973 -0.034452423 -0.00860402 -0.1433621 -0.050205413 0.09927223 -0.13032852
-0.13026606 0.08022376 -0.018976007 -0.09079306 -0.010703927 0.058794122 -0.05029758 -0.04557003
-0.09510429 -0.03456115 0.0506465 -0.038854618 0.14299399 0.15904926 0.048795655 -0.14636146
-0.11089618 0.052132994 -0.03539201 -0.09030183 -0.03849701 -0.004460382 -0.0149917025 0.063277125
0.019658817 -0.05823403 -0.1555357 0.0489743 0.14437228 0.12882999 -0.05057727 -0.099538594
-0.13211206 -0.21680252 0.0056432495 0.0027870315 -0.10050804 -0.104180664 -0.21578567 -0.20016997
-0.07499179 0.07209648 -0.011305509 -0.03139933 -0.117458366 0.07375959 0.055647317 0.19041383
0.03328561 -0.044782564 -0.22013687 -0.108676106 -0.08099713 -0.06458095 -0.15301383 -0.095319904
-0.13572156 0.08071466 -0.12634669 -0.027457075 -0.07184055 -0.16403115 -0.09508979 -0.117601596
0.21146086 0.09168615 -0.027731225 0.09801193 0.00506326 -0.038646247 0.10836552 -0.069355085
-0.036657512 0.12562054 -0.06354871 -0.12405124 0.05176383 -0.019018931 0.051772345 -0.12765592
00000000: bccc 243d fe89 30be cb31 fdbd 528a a4bd
00000010: e0dd 75be 9dfe 11be b595 42bd 336a f23d
00000020: a1b6 edbd c800 1bbe 9775 0ebe 27af 36bc
00000030: f26d 623d b52c 933d e373 fbbc b616 8f3d
00000040: 2e67 abbd e0a7 0d3e 96ff 873c 2913 81bd
00000050: 6665 03be 2423 94bd e60e b4bd e32e 0cbd
00000060: faae 15be 328f eabd e025 57bd b4f7 023e
00000070: 0200 fcbd 56ad 64bd d015 82be 34e7 2bbc
00000080: 749c 443d acd0 d63d 6ab0 f03d a12b 26bd
00000090: d53c 933d 3adc 80bd 107d 233e 9b36 14be
000000a0: 5dd4 cabd 778b 3ebe 71fb 563d 9266 d4bd
000000b0: 74d6 5a3b 3b82 19bc 17ae c8bd 2fd9 82bd
000000c0: 1560 f3bd 72fa 9f3d 61b5 903c d50b 093b
000000d0: a5be 4c3d 67f7 25be 6b5d cd3c 8509 cebd
000000e0: 1cec 043d 0cf6 d73d cadf a0bd c908 57be
000000f0: f881 82bc 7b97 c83c 5c69 dabc ec32 333e
00000100: bc5f 5f3d a7be 903d 6cfa 4fbd 9a90 91bb
00000110: baa9 2dbc 6064 51be 9712 1b3d 0dcb a8bd
00000120: b029 243a f652 ccbc 2f27 773c 5adf 063c
00000130: 258d 61be ace5 353e 445d dfbd eefb 0c3e
00000140: 4b94 3abd 417b aabd 1014 c13d 72ce d53c
00000150: 0397 743e 5232 853d e76e 02be 2710 a93d
00000160: 2ce7 193e 43dc 6cbd 3c25 c13d 3cb0 96bd
00000170: 5b70 c1bd c1fa b13d a127 c83d 03b3 fe3d
00000180: f00e 4dbd 574f 1d3d b682 eebc 61ac 14be
00000190: cdd3 1ebe 0dbc fb3d f146 e53c 49e1 3b3d
000001a0: 847d 6ebd 48c4 053d 6ac4 d0bd d810 5dbd
000001b0: c541 bcbd 028b 74bd bde6 b8bc 096a 83bd
000001c0: 3827 66bc 3bb0 2a3d fc1d 0dbd e0f7 0cbc
000001d0: 84cd 12be 31a4 4dbd 3d4f cb3d d774 05be
000001e0: 7764 05be 5b4c a43d 9273 9bbc b6f1 b9bd
000001f0: 865f 2fbc 1bd2 703d d604 4ebd a4a7 3abd
00000200: 0ac6 c2bd fe8f 0dbd b472 4f3d 0526 1fbd
00000210: 046d 123e cfdd 223e f4dd 473d c7df 15be
00000220: 891d e3bd 6889 553d 36f7 10bd 2af0 b8bd
00000230: 0aaf 1dbd 6528 92bb c29f 75bc 7097 813d
00000240: 870b a13c ce86 6ebd c044 1fbe 4799 483d
00000250: 54d6 133e 02ec 033e 1d2a 4fbd e4da cbbd
00000260: 6248 07be 7b01 5ebe 02eb b83b a1a6 363b
00000270: 29d7 cdbd ac5c d5bd ebf6 5cbe 5bf9 4cbe
00000280: 4c95 99bd 52a7 933d be3a 39bc 959c 00bd
00000290: 038e f0bd 450f 973d 71ee 633d d8fb 423e
000002a0: 7e56 083d ec6d 37bd 8f6b 61be 9491 debd
000002b0: d3e1 a5bd 0443 84bd a8af 1cbe 1537 c3bd
000002c0: 98fa 0abe ba4d a53d 0761 01be a9ed e0bc
000002d0: 2321 93bd c8f7 27be 70be c2bd 1bd9 f0bd
000002e0: 3289 583e f3c5 bb3d 982c e3bc 7bba c83d
000002f0: b4e9 a53b 874b 1ebd beee dd3d 0a0a 8ebd
00000300: 3026 16bd aca2 003e d325 82bd 940e febd
00000310: 4f06 543d 97cd 9bbc 3d0f 543d 3cb8 02be

linear.weight f4 [1, 50]
-0.18964665 -0.024347495 -0.052998587 0.06560995 -0.064606704 -0.01615971 -0.10659272 -0.13383794
0.04086734 -0.04518831 0.0009662352 -0.031325046 -0.18346617 0.12508188 0.08899891 0.14926694
-0.13528378 0.13547926 0.15329823 0.020820972 0.054962415 -0.0069576846 0.026355064 -0.14483872
-0.031026786 0.058444005 0.07914914 -0.15098001 0.0911751 -0.13779353 -0.03935145 -0.033543494
0.07154144 0.11903091 0.11395496 -0.12692699 -0.068558395 -0.107884906 -0.15264495 0.08432745
-0.09477344 0.0074283117 -0.03432566 0.09191657 0.14622296 0.14586253 -0.118697315 -0.09898955
0.12872532 0.031420473
00000000: bb32 42be 6674 c7bc 0c15 59bd 825e 863d
00000010: 8550 84bd 5e61 84bc 494d dabd d00c 09be
00000020: 8364 273d 6117 39bd f24a 7d3a b14e 00bd
00000030: 8ede 3bbe 7715 003e 0f45 b63d 6fd9 183e
00000040: d587 0abe 13bb 0a3e 36fa 1c3e be90 aa3c
00000050: 4520 613d 4afd e3bb 93e6 d73c 9a50 14be
00000060: e32b febc fb62 6f3d f218 a23d 819a 1abe
00000070: 03ba ba3d bf19 0dbe fc2e 21bd e764 09bd
00000080: 5284 923d 7ac6 f33d 3861 e93d 26f9 01be
00000090: 5868 8cbd c3f2 dcbd f54e 1cbe dfb3 ac3d
000000a0: 9418 c2bd 3269 f33b 1099 0cbd c13e bc3d
000000b0: 79bb 153e fd5c 153e 9417 f3bd 08bb cabd
000000c0: 92d0 033e c1b2 003d
