lstm_v1.pth (torch, 46229 bytes, 5 tensors)

lstm.weight_ih_l0 f4 [200, 2]
000000 b9 b7 8f 3e 3f 5a 8d 3d 89 8f 33 3e d0 80 2c be
       0.28069857 0.06901979 0.17535223 -0.16846013
000010 06 34 67 be 8b 6e 44 be 4a df 7e 3d 61 f6 cc bc
       -0.22578439 -0.19182794 0.062224664 -0.025019826
000020 32 6d a3 be 21 7a 5b be db 0a 2c 3d e6 1e 0d bc
       -0.31919247 -0.21433307 0.04200254 -0.008613324
000030 a9 3b f4 3d d6 93 8f 3d ad c3 1b be d5 0b c2 3c
       0.11925442 0.07010619 -0.15211363 0.023687283
000040 55 7f d6 3d e4 c0 4a be 5f 73 9a bc b4 c7 0d 3d
       0.104735054 -0.19800144 -0.018853841 0.03461428
000050 26 70 23 3e 6b 76 c3 3b 41 d0 57 bb 2d 6e 22 be
       0.1596075 0.0059650443 -0.0032930525 -0.15862341
000060 30 61 aa 3e aa be a0 3d ad 71 72 3d a0 c6 5f 3d
       0.33277273 0.07848866 0.05919044 0.054632783
000070 d9 33 f0 3d 07 5f 9f bd 8b a2 4b bd 90 41 70 be
       0.11728639 -0.07781797 -0.04971556 -0.2346251
000080 b5 f6 56 3e e4 eb 41 3e fc 87 3c 3e 65 d8 4b 3d
       0.20992549 0.18937641 0.18411249 0.049766917
000090 73 7f 98 3e 7f 42 e8 3d a5 71 5e 3e e1 d9 29 3e
       0.29784736 0.11340808 0.2172304 0.1658702
0000a0 b1 8a d3 bd 18 ec 6c be d4 ec f5 bd f0 5d 5b 3d
       -0.10329188 -0.23136938 -0.12008062 0.053556383
0000b0 3f fe 02 3e 14 9b 11 be 97 d2 70 3d ad 1e 0b 3e
       0.127923 -0.14219314 0.058794584 0.1358592
0000c0 99 4c 81 be a7 c5 83 3d b1 a5 39 3c 7b c2 34 3c
       -0.25253752 0.064341836 0.011331008 0.011032696
0000d0 1c 90 5a 3d 35 cc f0 bd 15 9d e8 3c 7e bb 8c 3c
       0.05336009 -0.117576994 0.028395215 0.017179247
0000e0 00 66 0f be 41 74 36 be a5 5b 55 3d d5 83 c2 bd
       -0.14003754 -0.17817785 0.052089352 -0.09497801
0000f0 df 26 88 bd 1b 14 64 be 8a fe 90 3d 95 2b 25 3e
       -0.06648039 -0.22273295 0.070797995 0.16129906
000100 eb ab 73 3e a9 58 fa 3d 37 30 4d be e3 2e 0e bd
       0.2379605 0.12223942 -0.20037924 -0.034712683
000110 ab 2d b0 3d 61 fe da bc ab 1b 4b be 0e 9f e5 bd
       0.086024605 -0.026732625 -0.19834773 -0.11211978
000120 f4 04 80 3e 1f b2 8c 3d 19 ca cb bd e5 6a 3f 3d
       0.2500378 0.068699114 -0.099506564 0.046732802
000130 98 94 8c be 65 65 da 3b 54 c8 55 be 8e a8 60 be
       -0.27457118 0.006664919 -0.208772 -0.21939299
000140 f8 18 76 3e cb 08 96 bd 06 cf 48 3e da c0 07 bd
       0.24032962 -0.07325896 0.19610223 -0.033142902
000150 a9 b0 09 be d0 79 05 be 7a 68 87 bd 35 48 19 bd
       -0.13446297 -0.13034749 -0.06611724 -0.037422378
000160 c9 7b 81 3e 65 4f 32 3e 06 32 49 be d9 d3 43 be
       0.25289753 0.17413099 -0.19647989 -0.19123782
000170 ba a4 66 3e a1 b5 dd bd 5f da 88 3d 77 66 6f bd
       0.22523776 -0.108256586 0.06682276 -0.058447327
000180 5a b8 34 3e 34 b3 c5 bc 7d 19 67 be 26 19 3b bd
       0.1764845 -0.024133302 -0.22568317 -0.04567828
000190 5d a1 48 3e 0e de bb 3d 41 4b 91 3e 44 26 a5 bb
       0.19592805 0.09173213 0.28377727 -0.005039962
0001a0 b8 c5 7a bd 84 9e d4 bd d3 7e 5b 3e 77 b5 8e bd
       -0.061223716 -0.10381797 0.21435098 -0.069682054
0001b0 c3 70 16 be 1e 58 bd bd c0 20 ad bd 9e 0b 95 3d
       -0.14691453 -0.09245323 -0.08453512 0.072776064
0001c0 77 54 a6 3e 8c 84 fc 3c 1c 18 ee bc 2d ae 95 bd
       0.32486317 0.030824922 -0.02906423 -0.07308612
0001d0 85 c0 90 bd 1c 29 59 be b7 a3 bb 3d 47 88 e4 3d
       -0.0706797 -0.21207088 0.091620855 0.11158805
0001e0 00 14 bb 3d 91 b3 d2 3d 13 55 e1 bd 95 6b 32 be
       0.09134674 0.10288156 -0.11002555 -0.17423852
0001f0 1a 97 5f 3e de 65 59 3d e3 49 46 3e 93 12 d7 bd
       0.21834984 0.053075664 0.19364123 -0.105015896
000200 22 a6 b5 3e d2 4a 85 bd 5b c4 5f 3d 1a 64 9c bd
       0.35478312 -0.065084115 0.05463062 -0.0763628
000210 17 7b f4 3d d6 70 7c 3d 12 cc c3 3d d0 63 f1 bd
       0.1193754 0.061631046 0.09560408 -0.11786616
000220 dd ba 95 3e 6d 2f 80 3d 43 39 d9 3d 9a b6 05 3e
       0.29244128 0.06259046 0.10606625 0.13057938
000230 51 50 01 be b2 c5 d4 bd a5 0b 31 3e 93 80 13 be
       -0.12628295 -0.1038927 0.17289598 -0.14404516
000240 c3 b8 45 3e ef 73 e1 3d ae 29 f2 3d e7 2a 8b bd
       0.19308762 0.11008441 0.11824356 -0.06795292
000250 83 5c 46 be 8e f0 a9 bd 38 65 1e 3e 89 4a ef bd
       -0.19371228 -0.08297835 0.154683 -0.11684138
000260 9b 5a 5d 3e 66 5d 27 3e 8e e9 33 3d 88 a9 c0 bd
       0.21616594 0.16344222 0.043923907 -0.094073355
000270 ef ce a0 be 11 b4 73 ba 85 f1 45 3e 35 a7 9f 3d
       -0.31407878 -0.00092965463 0.19330414 0.07795564
000280 cb bb a4 3d e0 2a 40 bd 8c e3 06 3e 95 47 02 3e
       0.08043631 -0.04691589 0.1317274 0.12722619
000290 6f d5 8e 3e 9d 6a 37 3e 8e ff 4e bd 0d e4 82 be
       0.27897212 0.17911763 -0.050536685 -0.25564614
0002a0 27 32 5c 3e e7 ca 55 3d 35 61 c6 bd db a9 3f bd
       0.21503507 0.052195456 -0.096865095 -0.046792846
0002b0 38 93 96 3e af a9 0d 3e cc 2d a1 bd 60 93 86 bd
       0.29409194 0.1383426 -0.07870063 -0.06571078
0002c0 73 d3 2b be 49 ef 06 bd 22 97 f4 3c 0a ef 5a bc
       -0.1677988 -0.032943044 0.029857222 -0.013362655
0002d0 b7 56 e9 3d c4 b4 1c 3e 3e b5 a6 3e 58 e4 18 3e
       0.11393493 0.15303332 0.32560152 0.14930856
0002e0 aa 1a 98 be f8 3e bb 3b 35 df 83 bc 5f 1c da bd
       -0.29707843 0.0057142936 -0.016097644 -0.106499426
0002f0 96 c2 6f 3e f0 9c 2f 3e ff df b8 bc 65 8a 67 be
       0.23414072 0.1714971 -0.022567747 -0.22611387
000300 28 c8 0b 3e d1 f7 86 3c 2f 65 66 3e af 05 00 bd
       0.13650572 0.01647559 0.22499536 -0.03125542
000310 9f 10 c6 3d 28 50 21 3e f3 2b 7c bd d6 e2 36 be
       0.09671139 0.15753233 -0.06156535 -0.17859969
000320 22 15 91 be 78 7b e0 bd 2f 10 fd bd 95 89 dc bd
       -0.28336436 -0.1096105 -0.123566024 -0.10768429
000330 a2 cb b4 bd 85 93 c3 3c b5 a3 53 3e 0d a8 30 be
       -0.088279024 0.023874054 0.20667918 -0.17251606
000340 23 11 95 3d 37 8c 12 be a6 f6 af 3c 7d fe 12 3c
       0.07278659 -0.143113 0.021479916 0.008971808
000350 92 56 90 be 80 e9 e3 bc 30 ba 4e 3e 04 f2 7d bc
       -0.28191048 -0.027821302 0.20188212 -0.015499596
000360 ec 05 bd bd 6d bb 16 bd f0 02 72 be 4d 96 2d bc
       -0.09229645 -0.036799837 -0.23633933 -0.0105949165
000370 06 1c 10 be 83 0d a7 bd 42 cf 1f bd c0 ec d8 bd
       -0.1407319 -0.08156874 -0.039016016 -0.105920315
000380 3b 15 65 3e 82 e6 01 bd f6 7b 82 be 22 c5 9d bc
       0.2237138 -0.03171397 -0.254852 -0.01925904
000390 31 01 8b 3e fd 28 e8 3d e4 03 af 3c 4e b8 0f be
       0.27149346 0.11335943 0.02136416 -0.1403515
0003a0 1e c4 9e be df f6 45 3d 05 a9 87 3e 52 6f 6e 3d
       -0.31009 0.048331138 0.2649614 0.058211632
0003b0 20 f2 9e 3e f9 e1 fa 3d a7 67 88 be ac 37 64 3c
       0.31044102 0.12250132 -0.2664158 0.013929289
0003c0 dd 9e e7 3c 04 9a 4f bd 8d 46 e7 3c 54 a6 44 3d
       0.028273994 -0.05068399 0.028231883 0.048010185
0003d0 4d 4d 8f 3d 25 4f 88 3d 66 73 a6 3e a3 85 b5 3d
       0.06997166 0.066557206 0.32509917 0.0886338
0003e0 4c c4 a0 bd a2 36 07 3e ac a7 ca bb cf 0c 25 be
       -0.07849941 0.13204435 -0.006184539 -0.16118167
0003f0 3b 7f 63 3e a1 54 7d 3d 46 bc 06 3e 80 ae 8d 3b
       0.22216503 0.061848287 0.13157758 0.0043237805

lstm.weight_hh_l0 f4 [200, 50]
000000 c3 c8 00 be 8f f0 7f 3c 2e 25 cc bd e0 ea 66 bd
       -0.12576585 0.0156213185 -0.09968029 -0.056376338
000010 07 b6 64 3e f4 17 ed 3d 8a 8a 54 be fb 25 2e 3e
       0.22335063 0.11576834 -0.20755973 0.17006676
000020 c5 3a eb 3c fb c6 64 bd fa fc d3 bd 76 eb 06 3e
       0.028714547 -0.055853825 -0.10350986 0.13175759
000030 c3 67 43 3d 99 a1 12 be ba 03 0a bd d1 be 34 3e
       0.047706377 -0.14319457 -0.03369496 0.17650916
000040 da a4 c1 bd f9 05 fc 3d 50 b5 09 3e 42 b1 3c 3c
       -0.09455271 0.12305827 0.13448071 0.011516871
000050 2a 2c a7 bd 07 8b 2b 3e ea 04 e3 bd 47 66 68 3d
       -0.081627205 0.16752253 -0.11084922 0.056738164
000060 73 0a 73 bd 60 bf 9b bd 92 74 5b 3d dc b0 88 3c
       -0.059336137 -0.07604861 0.053577967 0.016685896
000070 cf e5 91 3c 69 29 48 3d ac ff ad bd 14 bc 7b bd
       0.017809777 0.048867617 -0.08496031 -0.061458662
000080 bd 03 f2 3d 23 6f 62 3d 54 be f3 bd 94 8e 93 3c
       0.11817119 0.05528177 -0.119015366 0.018012322
000090 44 f6 10 3e ca 93 95 bc 3f 17 f8 3c 2c b5 4f bb
       0.14156443 -0.018258948 0.030284522 -0.003169368
0000a0 a7 70 b7 bd 4c be 82 bd bc 22 c7 bd 2d 76 8c 3d
       -0.089570336 -0.063839525 -0.09723422 0.06858478
0000b0 fe e1 78 bd 9a fc 46 3e e1 a9 7a 3d 77 5f 08 be
       -0.060762398 0.19432297 0.061197165 -0.13317667
0000c0 ba ff 2a be 2e d8 57 bd 8d f1 ae 3d 6b c8 0e 3e
       -0.16699114 -0.0526964 0.08542166 0.13943641
0000d0 60 66 8e bd 5a cb 0e 3c 0e 47 49 3d ae 1b 68 3c
       -0.0695312 0.008715475 0.04914003 0.014166756
0000e0 0e 16 04 bd 6f 54 8e 3d 80 36 8c 3d b3 d6 43 bd
       -0.032247595 0.06949698 0.068463326 -0.047812175
0000f0 16 2f 59 3d 70 a3 66 3a f6 58 36 3d 41 08 11 be
       0.05302342 0.0008798158 0.044518434 -0.14163305
000100 01 0a 0d bc 07 fd 18 3e a2 27 fe 3a 82 2a 29 3d
       -0.008608342 0.14940272 0.0019390474 0.041300304
000110 89 05 fc bd 3a c3 cb 3d 4a 2c 9a bc d4 e6 9d bd
       -0.12305743 0.09949346 -0.018819947 -0.077100426
000120 9a d4 97 bd 9d 10 b7 3d f7 88 c8 bc a2 b8 a7 bd
       -0.074135974 0.089387156 -0.024479372 -0.08189513
000130 49 4b 0a be 0f 2a 91 3d ff ca ff bd 63 72 27 3e
       -0.13505282 0.070881 -0.1248989 0.16352229
000140 44 d7 43 bc d4 09 d7 3d 86 cb 22 3d cd 1b a4 3d
       -0.011953179 0.104999214 0.039744876 0.08013115
000150 60 6c 21 3d 79 7c 89 bd 8d 29 8b bd 14 78 45 3e
       0.039409995 -0.067131944 -0.067950346 0.19284087
000160 93 be 2f be b6 03 ae 3d c3 40 a0 bc 2c 7b 81 3d
       -0.17162542 0.084968016 -0.01956213 0.06322321
000170 7f 56 55 bd b7 dd 4e bc 65 41 27 bd 56 95 0a 3e
       -0.052084442 -0.012626103 -0.04083385 0.1353353
000180 da dd 81 3d d1 ba af 3d 49 d5 2a 3c a5 87 29 3d
       0.06341143 0.08580554 0.010426828 0.041389126
000190 72 ce 27 3d 8e 3d 99 3e db ea 1e 3e 22 b2 c3 bd
       0.040968366 0.29929775 0.15519278 -0.095554605
0001a0 2f 88 a2 bd 2f 3e 54 be c1 f2 89 3e 9d 95 38 be
       -0.07936131 -0.20726846 0.2694302 -0.18025823
0001b0 41 8b b3 bc a3 f7 ea 3c ec c2 96 3d de 80 d3 3d
       -0.021916987 0.028682536 0.07361397 0.10327314
0001c0 64 73 4f be fc 91 03 bc 0a f2 b5 bd 63 ac 70 3d
       -0.20258862 -0.008030411 -0.08884056 0.05875815
0001d0 58 48 8d 3e 28 d0 61 be 05 a2 32 be 51 4d 9e 3d
       0.27594256 -0.22052062 -0.17444618 0.07729591
0001e0 0a 36 fc bd 59 ab c9 bc 3f 77 81 bd a3 59 8d be
       -0.12314995 -0.024617838 -0.063215725 -0.2760745
0001f0 49 a3 1a bd 52 54 25 3e 56 51 91 be 15 4d 5e bc
       -0.037753377 0.16145447 -0.28382367 -0.0135681825
000200 48 86 26 3d 00 b6 9e 3e e6 3a 1d be ea 57 82 bd
       0.040655404 0.3099823 -0.15354499 -0.063644245
000210 f2 5b 10 be a1 16 bf 3d 73 6f 7f 3e ab 00 8d bd
       -0.14097574 0.09330488 0.24944858 -0.06884893
000220 17 bf 4d be 5c f4 03 3e c4 eb 42 ba a6 86 5d 3c
       -0.20092426 0.12886184 -0.00074356445 0.013520872
000230 50 0d 7b be ec 76 f9 3d 6f c8 1f bd b8 47 22 be
       -0.24516797 0.12180886 -0.039009508 -0.15847671
000240 10 d0 27 be 8b 88 84 bd 17 bc fc bd 3a 79 36 3d
       -0.16387963 -0.06471356 -0.12340563 0.044549204
000250 b3 71 ca 3d 8c 1a a6 3d 3f ac f4 bc 11 2b c4 3d
       0.09884968 0.08110532 -0.02986729 0.09578527
000260 02 1c 98 3c e4 07 38 bc 77 ce 8c bc e7 45 30 bd
       0.018568043 -0.01123235 -0.017188294 -0.043035414
000270 3f eb e5 3c be fa 4b bd 54 07 f7 bd bd 7e cc 3c
       0.028066276 -0.049799673 -0.120619446 0.024962777
000280 48 df 6c 3d 3d 16 bd bc 5a df b4 3d ec 80 b5 3d
       0.057830125 -0.023081893 0.088316634 0.088624805
000290 0a 5a 49 3d ba 0f 9c bd d2 03 e7 bd 62 45 1a 3d
       0.049158134 -0.07620187 -0.112800255 0.037663825
0002a0 bb bc e4 3d 48 4e 95 bb 22 2a 8e 3c c8 4b ed 3d
       0.1116881 -0.004556451 0.017354075 0.1158672
0002b0 aa 7b 0d be 3b 40 94 ba 47 66 37 3d c1 57 20 3d
       -0.13816705 -0.0011310646 0.044775274 0.03914619
0002c0 d8 11 e9 bc 0c bd 08 bc 1f fe 44 3d a6 01 2d 3d
       -0.028450891 -0.008345854 0.04809391 0.0422379
0002d0 de 17 03 bd 4d ea b2 3d c7 af 09 be b6 4f 52 bc
       -0.032005183 0.087360956 -0.1344596 -0.012836387
0002e0 1d 20 df 3d 41 4d 59 bc 25 e6 ed bd b2 07 9e 3c
       0.10894797 -0.013263048 -0.11616162 0.019290779
0002f0 e8 32 17 be 08 00 72 3d 59 f2 11 be a4 d1 ac 3d
       -0.14765513 0.05908206 -0.14252605 0.08438423
000300 8a 4f 32 3c 4a 9b 76 bd a8 8e 67 bd 4c 08 f7 bd
       0.010883221 -0.06020669 -0.056532532 -0.120621294
000310 c4 3e 58 3c 35 76 02 3d a0 b4 fc 3d a8 f7 46 bd
       0.013198558 0.031851012 0.12339139 -0.048576027
000320 d2 e9 26 3d 13 cc 50 3e 51 a3 30 3d 62 a7 22 be
       0.040750332 0.20390348 0.0431245 -0.15884164
000330 73 9c a6 3d 47 5d b2 bd cb 40 95 3e 19 49 08 be
       0.08135309 -0.087091975 0.29150996 -0.13309135
000340 46 3d 61 3c 46 8e c2 3d 42 24 51 3c 5e d3 c5 3d
       0.013747519 0.09499793 0.012764992 0.09659456
000350 3c 5f 30 bc 13 28 d2 3d ba 39 89 be d3 b9 93 bd
       -0.010764893 0.1026155 -0.26801854 -0.072131775
000360 ea 94 3c 3e 2a 23 e5 bd 3b 55 65 be 65 36 8e 3e
       0.18416181 -0.11188348 -0.22395794 0.27775875
000370 f3 3f dc bd f1 2d dd bd 2c 73 29 3c 8b 50 95 bd
       -0.10754385 -0.10799778 0.0103424005 -0.07290753
000380 b9 3e d2 3c e2 5f fc 3d 6d ca fd bc 8f fa a0 bc
       0.025664674 0.12322976 -0.030980313 -0.019650726
000390 4d c5 d3 3d 55 93 8d bb 64 88 b4 3d 02 6d 97 be
       0.103403665 -0.004320542 0.08815077 -0.29575354
0003a0 c3 6a 90 bd 8d 24 1b 3c 04 e1 be 3d a3 a7 0d 3e
       -0.07051613 0.009469164 0.09320262 0.1383348
0003b0 e1 a0 a5 be 95 30 59 3e af 56 04 3e 77 11 71 3c
       -0.32349303 0.21209939 0.12923692 0.014713637
0003c0 1a 1f 92 be 86 f8 0d 3e 61 a7 db 3c 5c dc 72 3d
       -0.28539354 0.13864335 0.02681321 0.059292182
0003d0 fe fd f2 bd 8e 11 80 bd ac ca 23 bd 93 fb 82 3e
       -0.118648514 -0.06253348 -0.039988205 0.2558256
0003e0 34 7a 99 3e 41 71 c2 3d 68 ce b8 bd 8c 7b 3a 3e
       0.29976046 0.09494258 -0.09023744 0.18211192
0003f0 8d 79 65 bd e6 cb a9 bd 5a be bd 3d 05 30 05 be
       -0.056024123 -0.08290844 0.09264822 -0.13006599

lstm.bias_ih_l0 f4 [200]
000000 c9 b4 14 3c 4a 94 b8 3c 31 c7 f2 bd 6e 79 13 be
       0.009076306 0.022531647 -0.11854399 -0.1440179
000010 4f 86 81 bd 49 37 65 3d d9 df a7 3d 8d d0 2d 3d
       -0.063244455 0.055960927 0.081969924 0.042435218
000020 5d 66 66 be ae f3 1c be 33 ef bd 3d 30 14 4c be
       -0.22499986 -0.15327331 0.09274139 -0.19929576
000030 7b 61 c5 bd 65 04 8b bd 98 0d 37 3e 20 22 02 be
       -0.096377335 -0.067879476 0.1787628 -0.1270833
000040 60 44 15 3d 38 66 0b be 6f 62 19 3e 85 fe 18 bd
       0.03644216 -0.13613212 0.14978956 -0.037352104
000050 61 a9 86 be f9 4f d2 bd f4 1b c1 bd d2 d1 12 3e
       -0.263011 -0.1026916 -0.0942916 0.14337853
000060 a2 57 cb bd 34 3b 76 3d 18 df f9 3c 34 af 9b bd
       -0.09928824 0.060115054 0.030501887 -0.07601777
000070 43 3d 4d bd 0a 6c 84 bd 46 b9 8a bc c0 df 70 bc
       -0.05010725 -0.06465919 -0.016934048 -0.014701784
000080 35 81 ab 3c da 9f 64 be ae 7b 90 3b dc c9 84 be
       0.020935634 -0.22326604 0.004409275 -0.25935256
000090 48 9e ee 3c ea 77 c7 bd fa bd 58 be c1 80 8e bd
       0.029128209 -0.09739669 -0.2116622 -0.069581516
0000a0 0d 6c e5 bd 7c fa 42 bd 31 0f e7 bc 69 34 53 be
       -0.1120225 -0.04760216 -0.028205486 -0.20625462
0000b0 2d ff 68 3d 6a 5f a4 3c 21 8d 0c 3e e1 07 f6 3c
       0.05688398 0.020065028 0.13725711 0.030033054
0000c0 65 3e 38 bd 7d d9 7a be d9 58 a2 3c ae 01 29 bd
       -0.04498138 -0.24497028 0.019817756 -0.041261367
0000d0 f6 e7 5d be c8 4e e2 3d 56 12 24 be b0 12 d8 bd
       -0.21670517 0.110501826 -0.1602262 -0.10550439
0000e0 97 24 56 3e b1 c3 7e 3d 81 2c ce bd 8e 27 24 3e
       0.20912395 0.062198345 -0.10067082 0.16030714
0000f0 c8 cd ac 3d 69 29 4a bd c9 00 13 3b 42 e7 18 3e
       0.08437687 -0.049355898 0.0022430888 0.14931968
000100 6b 11 1c 3e e4 d3 6d bd 90 33 31 3e ee 7c c1 bc
       0.1524102 -0.058063403 0.17304826 -0.023619141
000110 71 ac 2f 3e 8b 29 60 bd 7c 48 8c bd 2d c7 0a be
       0.17155625 -0.05472712 -0.06849763 -0.13552542
000120 69 fb c7 3d e0 37 39 3e 50 f1 2b be 13 0a 37 bd
       0.097647496 0.18087721 -0.16791272 -0.044687342
000130 92 d3 b1 bd 52 d4 36 bc e4 50 63 be 58 81 10 bd
       -0.08682932 -0.01115902 -0.22198826 -0.0352796
000140 b9 9f 02 bc 70 77 5b bd 72 4b 52 3d 57 33 45 be
       -0.007972651 -0.0535807 0.05134148 -0.19257866
000150 16 5f d1 bc df b0 5f be 1b b5 5e 3e 91 7d 75 3b
       -0.025558036 -0.21844815 0.21748774 0.0037458877
000160 a8 b6 9f 3d 2e 74 1d be 0a a1 7c bd 0c 56 73 3c
       0.07798511 -0.1537635 -0.061677016 0.014852058
000170 1e 31 16 be 26 7e 46 be dc 1b 01 bd 75 4e 27 be
       -0.14667174 -0.1938406 -0.03152071 -0.16338523
000180 40 7e 87 3c ee c0 be 3d 4b 06 da bc 2b 64 1e bc
       0.016539693 0.09314142 -0.026614329 -0.009667437
000190 05 9d 55 3c fe 0f fa bd 11 d1 48 3d eb ee 28 bb
       0.013037925 -0.122100815 0.049027506 -0.0025777172
0001a0 ec 81 96 bb 3b f6 d5 bc 1e 69 7a bd 12 87 9a bd
       -0.0045931246 -0.026118388 -0.061135404 -0.07545294
0001b0 48 3a 0a be 79 80 9c 3c e1 5d a9 3d 5a 6e 2d be
       -0.13498795 0.01910423 0.08269859 -0.16936627
0001c0 8a 3e f1 3d 23 3b 82 bd 5e 78 a2 3d 1f ef 35 bd
       0.117795065 -0.06358936 0.079331145 -0.044417497
0001d0 cc 0b 18 bd 5a d6 3b bd 24 df e3 3a b5 fe 96 3d
       -0.037120625 -0.04585872 0.0017385227 0.073728
0001e0 01 fc 9b 3c fe 99 0d bd 06 15 ff 3d b3 a4 80 3b
       0.019041063 -0.034570687 0.12455182 0.0039258837
0001f0 cb 84 32 3e 66 69 d4 bd c2 c1 fa 3c 64 d1 8a bc
       0.17433469 -0.10371666 0.030609969 -0.016945548
000200 e5 ba a1 39 81 e3 a4 3b ce 9d 43 bb 50 a1 46 bd
       0.0003084756 0.0050320034 -0.0029848698 -0.048493683
000210 a5 78 0a 3e 12 ac ce 3d 0b 40 8a bc 76 ce a2 bd
       0.13522585 0.100914136 -0.016876241 -0.079495355
000220 f7 f3 14 3e fe 75 40 bd ea 1b 03 3e 2b d5 cb bc
       0.1454619 -0.046987526 0.12803617 -0.02488192
000230 c6 2a ca bd 97 8e db bd 30 f6 52 bd a7 54 ed 3b
       -0.0987144 -0.10720556 -0.051504314 0.0072427574
000240 1f 80 61 bd 8d 1c 50 bc 55 e9 eb 3d 1d 8a dc 3d
       -0.055053826 -0.01270212 0.11519114 0.107685305
000250 0c af c5 bd 63 6c 30 bd 22 f2 2f 3d ff 48 59 3d
       -0.09652528 -0.043072116 0.042955525 0.05304813
000260 a7 ed eb bd d4 ac 24 bd 1d fa 7f 3c 3f f4 3e be
       -0.11519938 -0.040203884 0.0156235965 -0.1864786
000270 12 30 b7 bc 3e 97 8b 3c b7 24 1a be c8 23 84 bd
       -0.022361789 0.017039891 -0.15053068 -0.06452137
000280 fa 00 9d bd c4 ff 08 be d9 06 2b 3a 3b 2e 96 bd
       -0.07666202 -0.13378817 0.00065241527 -0.073330365
000290 19 26 cd bc 26 b2 fc 3c 8a d4 06 3e f4 2f 8a bd
       -0.02504258 0.030846667 0.13167015 -0.067474276
0002a0 ac 44 ac 3d e4 da 01 3e b0 22 3c be 63 97 59 bd
       0.084115356 0.12681156 -0.18372607 -0.05312289
0002b0 e6 e6 3c bd 72 3a d9 3d e5 3d 3f 3d cb 62 22 be
       -0.04611864 0.10606851 0.046689887 -0.15857999
0002c0 3f 92 a1 3d 86 56 12 be f4 c1 47 be 48 42 99 bd
       0.07889222 -0.14290819 -0.19507581 -0.07483345
0002d0 c4 32 cf bb 21 e7 58 3d 85 6d d7 bd 98 6e 99 be
       -0.0063231904 0.052954797 -0.10518936 -0.2996719
0002e0 8e 29 c3 bd 7c c7 89 3a 3e 12 05 3e f5 fa 29 3d
       -0.0952941 0.0010511721 0.1299524 0.041499097
0002f0 60 b4 09 be 9c 79 57 be 4e cb d8 bd 3b cb d0 bd
       -0.13447714 -0.21042484 -0.10585652 -0.10195013
000300 2c 09 8e be 51 60 16 bd f0 f0 05 3e 41 fc 6d be
       -0.27741373 -0.03671295 0.13080192 -0.23240758
000310 66 fb 67 3c 99 1b 18 bd b6 89 d7 bc 9e 00 82 bd
       0.014159059 -0.037135694 -0.026310783 -0.06347774

lstm.bias_hh_l0 f4 [200]
000000 61 12 33 bb dd 38 31 be b8 78 0d bd 72 14 cc bd
       -0.0027324187 -0.17306848 -0.034538954 -0.09964837
000010 e4 ea e5 bd ef ef 03 be f4 15 9a bd db 23 0d be
       -0.112264425 -0.12884496 -0.075237185 -0.13783209
000020 c3 e2 47 be d7 f5 29 3c cb 18 ea 3c d8 f6 69 bd
       -0.19520096 0.010373554 0.028576275 -0.057120174
000030 1b aa 31 bd f1 46 7f 3d 38 e6 54 bd 59 68 54 be
       -0.043375116 0.062323514 -0.051977366 -0.2074293
000040 e2 c0 72 3b cd b0 b3 bd db 89 29 3e fe bf 9e bc
       0.0037041237 -0.087739564 0.16556494 -0.019378658
000050 a6 80 4c be 13 fb 2a be 0b 60 ef 3d 42 29 eb 3d
       -0.1997095 -0.1669734 0.116882406 0.11482479
000060 ad c1 04 be 17 1c 09 be 4a 3a e5 bc da 3f 0e be
       -0.12964506 -0.13389622 -0.027981896 -0.13891545
000070 1c 10 3f bd cf b4 cf 3d 9e 21 ed bd 05 96 12 3e
       -0.046646222 0.101419084 -0.115786776 0.1431504
000080 84 d3 9a bd ec be 73 be bc 40 8c bd eb 8b 84 be
       -0.07559875 -0.238033 -0.068482846 -0.25888
000090 b5 94 a6 3c 5c 7b 0f be a8 77 22 bd bb ad 2c be
       0.02033458 -0.14011902 -0.039664894 -0.16863148
0000a0 95 ea 93 3d 6c 02 ad bd 74 69 72 be 39 6b 69 be
       0.07222477 -0.084477276 -0.2367304 -0.22794808
0000b0 ef fb 3b 3e cd 74 5b be 34 3e a8 3d a6 ec 75 3d
       0.18357824 -0.21431275 0.08214989 0.06004014
0000c0 0d 27 12 3d 64 3c cc bd 62 96 66 3d 1d 96 c2 bd
       0.035681773 -0.09972456 0.05629576 -0.09501288
0000d0 f4 bf 94 bc 4c 2f 26 3c 1a 66 05 3d 86 65 4b 3d
       -0.018157937 0.010143112 0.032568075 0.049657367
0000e0 79 74 45 3a e1 dc 2e be 74 c9 5c be d8 77 1b 3e
       0.00075323094 -0.17076446 -0.21561223 0.15182436
0000f0 e2 85 ac 3d fc 1b 26 be a1 ef 70 bd bb 63 0d 3c
       0.084239736 -0.16221613 -0.058822278 0.008629735
000100 45 60 7d 3d 7b 06 ac bd 79 a2 65 3e ae aa 2f 3c
       0.061859388 -0.083996736 0.2242526 0.010721846
000110 70 87 0c 3e ed 21 cd 3d 06 4a 3a be f6 d8 b7 bc
       0.1372354 0.100162365 -0.181923 -0.022442322
000120 25 d0 8e bd 10 cd 1e 3d 0d 80 cb bd 76 4d e2 bd
       -0.06973294 0.03876978 -0.09936533 -0.11049931
000130 25 95 f9 bc 6b 6a 12 3d db 39 8f bc 6c 8e b3 3d
       -0.030466625 0.03574602 -0.017483642 0.08767399
000140 90 4e 00 be b5 06 5e bd 26 73 96 bd a1 02 34 bd
       -0.12529969 -0.054205615 -0.073461816 -0.04394782
000150 c5 04 1c bd 0e c8 81 bc 97 03 c7 3d 35 d3 55 bd
       -0.038090486 -0.015842464 0.097174816 -0.052203376
000160 d6 22 1f be e1 44 40 be 53 ae fd 3d 14 fa 32 3e
       -0.15540633 -0.18776275 0.12386765 0.1747821
000170 18 37 52 be 5f 9e bd bc cd d3 49 3e 91 2e 43 be
       -0.20528829 -0.023146806 0.19709702 -0.19060732
000180 6c 33 39 bc 1c 32 b6 bc e8 c0 7e bd c9 c1 78 be
       -0.011303764 -0.02224069 -0.06219569 -0.24292673
000190 d4 b5 c7 bd 62 bd 2b 3d 7f ef ec bd 60 d7 28 3d
       -0.09751478 0.041928656 -0.11569118 0.041221023
0001a0 6a 37 18 be f0 94 dc 3d b4 2f 9b 3d 65 95 f1 bc
       -0.14864889 0.10770595 0.07577458 -0.029490182
0001b0 71 82 8c 3c 35 d3 ee 3d 83 fc 10 be 88 b7 11 3d
       0.017152043 0.11661378 -0.14158826 0.03557542
0001c0 a2 a5 22 3e 66 1c b7 3d ce fd 13 3e 62 b0 ca bd
       0.15883496 0.089409634 0.14452288 -0.098969236
0001d0 1a a9 4c 3c 56 ce ca bc ca 03 8d bc 35 75 ce bd
       0.012491489 -0.024756592 -0.01721372 -0.10080949
0001e0 f0 87 40 3e ba 08 0a be 08 fd b0 3d 74 eb 8d 3d
       0.18801856 -0.13479891 0.08642012 0.06929675
0001f0 22 3e 99 3b 83 bf e4 bc e3 e9 18 3e 05 8e 9e 3c
       0.0046765963 -0.027923351 0.1493297 0.01935483
000200 71 2b e0 3d 4d d0 b4 bd 74 f5 35 3e 05 cd bd 3d
       0.10945786 -0.08828793 0.17769414 0.0926762
000210 8b ce 8a bd 73 fd f2 bc 69 0a b3 bd 58 cb 8e bd
       -0.06777676 -0.02966187 -0.0874222 -0.069723785
000220 06 43 e4 bd eb 98 57 bd bc 4b 6e 3d f3 17 ec 3c
       -0.11145596 -0.05263607 0.058177695 0.028820014
000230 f8 49 04 3e 1b db e5 3d fb 78 26 3e 88 a3 9f bd
       0.12918842 0.11223432 0.16257088 -0.07794863
000240 42 00 7e 3d 62 00 9d bd 58 f1 9f 3b 50 89 4c bd
       0.062011965 -0.07666089 0.0048810653 -0.04993564
000250 e9 8d 30 39 12 7b 73 bd 07 95 51 3d 2c e2 30 3d
       0.00016837534 -0.05944354 0.051167514 0.043184444
000260 ba 4b 87 be 58 2a 26 be 12 29 90 bd aa d1 aa bd
       -0.26424962 -0.1622709 -0.070390835 -0.083407715
000270 37 85 eb 3d b6 d8 28 be 54 4e 88 bd b0 f0 90 3d
       0.11500018 -0.16488919 -0.06655565 0.070771575
000280 00 41 94 3d 70 c9 a6 bd 71 63 45 3d 8b e8 c8 bc
       0.0723896 -0.0814389 0.048190538 -0.024524948
000290 19 d4 0d 3d 3d 03 2d be aa 08 3d 3e 22 7f 95 3d
       0.0346261 -0.16895767 0.18460336 0.07299639
0002a0 07 b5 10 bd 5b 8d 4e bd 23 4c 8d be 54 7b 77 bc
       -0.03532889 -0.050427776 -0.2759715 -0.015105087
0002b0 30 da fc 3d aa 1c 0d 3e ca 2c 2b 3c 9b 62 d7 bc
       0.123463035 0.13780466 0.01044769 -0.026292136
0002c0 d9 2b 1e bd e4 f3 1c be cb bb 91 bd d2 90 bf 3c
       -0.038616035 -0.15327412 -0.07115897 0.023384485
0002d0 96 92 68 bd 22 0c c2 bc cf a3 52 bc 56 d3 ac bd
       -0.05678042 -0.023687426 -0.012856438 -0.08438747
0002e0 f8 8b b6 bd 2b 0b bb bc 87 31 8f 3c bb 05 82 bc
       -0.08913416 -0.022832474 0.017479671 -0.015871873
0002f0 ce 9f 0a be d4 30 64 be df 58 05 3e 83 c2 a2 bc
       -0.13537523 -0.22284251 0.13022183 -0.019868141
000300 d4 e2 08 bc ae ad 06 be 85 fd 86 bc 4b d3 78 be
       -0.008354861 -0.13152191 -0.01647831 -0.24299352
000310 08 3e 87 bc 53 06 26 3e 56 69 3d bd d9 88 5a bd
       -0.016509071 0.1621335 -0.046243034 -0.053353164

linear.weight f4 [1, 50]
000000 52 14 01 be 68 ce e7 bd e1 be f3 bc 79 9d 84 3d
       -0.12605408 -0.11318666 -0.029754104 0.06475348
000010 5b a9 24 3d e3 89 a0 ba 1f bb 45 be e3 a5 97 3d
       0.040200572 -0.0012248125 -0.19309662 0.07404687
000020 af 2f a8 bd a7 43 ae bd 1c 04 61 bd 25 4e 32 bd
       -0.0821222 -0.085089974 -0.05493556 -0.043531556
000030 e2 e1 2b 3e cf da 15 be cc 8d 42 3e 5f 9d 95 bc
       0.16785386 -0.1463425 0.18999404 -0.018263517
000040 05 fe 4b be 3b ef a5 3d 29 eb 05 3e fb 1d 25 be
       -0.1992112 0.0810227 0.13077988 -0.16124718
000050 a2 05 26 3b 10 52 15 bd c9 ef ab 3d ae d9 db 3d
       0.0025332947 -0.036455214 0.08395345 0.107348785
000060 b5 0c 33 bd 78 78 aa bd c3 31 d7 3d 56 ee 98 3d
       -0.04371329 -0.08323759 0.10507538 0.07467334
000070 be 0f f5 bc a2 e3 92 bd 20 05 97 3d ac 7f 18 3e
       -0.029914733 -0.07172324 0.073740244 0.14892453
000080 11 86 05 3e 6e c3 cb bc ba e5 f8 bd 5c 2a 09 bb
       0.13039424 -0.024873462 -0.12153192 -0.002092979
000090 43 3a 3b 3e 13 0f 01 3c 79 2c 72 bd ce bf 68 bd
       0.18283944 0.007877129 -0.059124444 -0.056823544
0000a0 a1 b6 11 3e 1f cc c8 bd 69 e5 a3 bc ef 39 d7 3c
       0.14229824 -0.09804558 -0.020006852 0.026272742
0000b0 f0 91 35 3e 10 77 d0 3c ac 9e a5 3d 24 69 c8 bd
       0.17731452 0.025447398 0.08086905 -0.09785679
0000c0 8b 9c 1d be ab b4 bd bc
       -0.15391748 -0.023157438
